PYTORCHMODELBINARY_d0f3a401-c185-4410-88c1-accc056ebc96/Version 1/jeff/deep_model.pth (torch, 47268 bytes, 7 tensors)

layer1.weight f4 [60, 60]
0	0x3b4abf80	0.0030936897
1	0xbdc15bae	-0.09441315
2	0xbb36e100	-0.0027905107
3	0xbd4c995e	-0.04995095
4	0xbd2523dc	-0.0403174
5	0x3dddd236	0.1083111
6	0xbdf6ed2e	-0.12056957
7	0x3da99de4	0.08282068
8	0x3dfc8e72	0.12331857
9	0xbb9e63f0	-0.004833691
10	0x3d3636e4	0.04448594
11	0xbda6a2dc	-0.08136532
12	0xbdd5a1b0	-0.1043123
13	0xbda90515	-0.082529224
14	0xbcd9fb6c	-0.026609145
15	0x3dd4eac0	0.103963375
16	0xbd46fd18	-0.048581213
17	0x3dff4422	0.12464167
18	0xbd215a46	-0.039392732
19	0x3def1ce6	0.11675434
20	0xbd12acf2	-0.035809465
21	0x3deb4da0	0.11489415
22	0xbdfca1b5	-0.12335531
23	0x3db5615e	0.08856462
24	0xbdf653dc	-0.12027714
25	0xbded0abe	-0.115743145
26	0x3de23edc	0.11047146
27	0x3d524ce0	0.051342845
28	0xbe032d1f	-0.12810181
29	0xbbe38630	-0.0069434866
30	0x3dcef4c6	0.101052806
31	0xbdb8e75c	-0.09028503
32	0x3d561760	0.052268386
33	0xbdb76675	-0.08955089
34	0x3deba3d8	0.1150586
35	0x3cceffb0	0.025268406
36	0x3d9b271a	0.075758174
37	0x3c4e5710	0.0125939995
38	0x3db51490	0.088418126
39	0x3dec742a	0.11545594
40	0x3c3d6570	0.011559829
41	0xbb0b0500	-0.0021212697
42	0x3dfe536e	0.12418257
43	0xbd2b9ea0	-0.041899323
44	0x3da3dc66	0.08001022
45	0xbd16ca24	-0.03681387
46	0x3d0eb3b4	0.034839347
47	0xbd92c8a5	-0.07167176
48	0xbc874b28	-0.01651533
49	0xbd817944	-0.06321958
50	0xbd9e459c	-0.07728121
51	0xbdaeff25	-0.08544759
52	0xbc537db8	-0.012908392
53	0x3d52be6c	0.05145113
54	0x3d0f9d60	0.035062194
55	0xbd7e5c32	-0.062099643
56	0x3d079e6c	0.033110067
57	0x3d85890c	0.0652028
58	0x3cbf2d20	0.023336947
59	0xbb9221d0	-0.004459597
60	0x3b7ae800	0.0038285255
61	0xbd50f1e6	-0.051011942
62	0xbd29fb18	-0.041499227
63	0x3dba6eea	0.091031864
64	0xbd4b2742	-0.049597986
65	0x3ddf2ed8	0.108976066
66	0x3da0a020	0.078430414
67	0x3d0cb650	0.034353554
68	0x3d8e603e	0.069519505
69	0xbd07cf84	-0.033156887
70	0xbdd4a510	-0.10383046
71	0x3dbe15f8	0.09281534
72	0x3df2a5e8	0.1184805
73	0xbb820cc0	-0.003968805
74	0xbd2c5c08	-0.042079955
75	0xbe028116	-0.12744555
76	0xbdbbe482	-0.09174444
77	0x3bc6dda0	0.0060689
78	0x3d662810	0.05619055
79	0x3d4fa770	0.05069679
80	0x3db41920	0.08793855
81	0x3d5f4950	0.054513276
82	0xbde41e54	-0.11138597
83	0x3d96cd28	0.07363349
84	0x3c78d4f0	0.015187487
85	0xbd167298	-0.03673038
86	0xbd065c6e	-0.03280299
87	0x3dd659dc	0.10466358
88	0x3dff61ba	0.12469812
89	0x3da4b6a0	0.080426455
90	0x3dcaca6e	0.09901892
91	0xbd629196	-0.055314623
92	0xbd9de922	-0.07710482
93	0x3dde50d0	0.108552575
94	0x3d371d04	0.044705406
95	0xbd1741bc	-0.036927924
96	0xba202800	-0.0006109476
97	0xbd4d17c2	-0.050071485
98	0xbda4a16d	-0.08038602
99	0x3d7a634c	0.061129853
100	0x3d6f5b9c	0.058436975
101	0xbd911721	-0.070844896
102	0x3de1f78a	0.110335425
103	0xbdd40545	-0.103525676
104	0x3d0f2630	0.034948528
105	0xbc319928	-0.010839738
106	0xbc3da280	-0.011574388
107	0x3df268ac	0.11836371
108	0xbd2f33d4	-0.042774037
109	0xbcc398c4	-0.023876555
110	0xbb78a940	-0.0037942678
111	0x3d134e68	0.035963446
112	0x3c99f0c0	0.018791556
113	0x3de65398	0.11246413
114	0xbddb8566	-0.10718803
115	0xbd3edb0a	-0.04659561
116	0xbc201cd0	-0.009772494
117	0xbc554c48	-0.013018675
118	0xbd4d8f2a	-0.05018536
119	0xbd808dbf	-0.06277036
120	0xbcfca6fc	-0.030841343
121	0x3d3a9574	0.045552686
122	0x3dd15522	0.10221316
123	0x3c1c79b0	0.009550497
124	0xbdb6672e	-0.08906399
125	0xbd99bca9	-0.07506687
126	0x3c2b6800	0.010461807
127	0x3db93f80	0.09045315
128	0xbdc6ad3e	-0.09701012
129	0x3d0aa768	0.033851057
130	0x3dfc2ada	0.12312861
131	0xbc9dd310	-0.019265682
132	0xbcb72d88	-0.022360578
133	0xbdfc95ce	-0.123332605
134	0x3d6eaeb0	0.058272064
135	0xbdb4ffb6	-0.088378355
136	0x3dff7986	0.12474351
137	0x3cf388a8	0.029728249
138	0xbdd9cd1f	-0.10634827
139	0xbd84150c	-0.06449327
140	0xbdde6d12	-0.10860647
141	0xbd2397aa	-0.03993956
142	0x3d269534	0.040669635
143	0xbda04bdb	-0.07826968
144	0xbddc5c9a	-0.1075985
145	0xbcda6e3c	-0.026663892
146	0xbd6b62a2	-0.05746711
147	0x3d947270	0.0724839
148	0xbd81e9d7	-0.063434295
149	0xbc59ff70	-0.01330553
150	0xbcdbc0dc	-0.026825361
151	0xbd1a19e2	-0.03762234
152	0x3dc0b808	0.09410101
153	0x3d16e3c4	0.036838308
154	0xbd88ae00	-0.06673813
155	0xbc96fc50	-0.018430859
156	0xbd369626	-0.044576786
157	0xbc016760	-0.007898182
158	0x3d4ae848	0.049537927
159	0x3d993f16	0.07482736
160	0x3d81c422	0.063362375
161	0xbdef4db2	-0.11684741
162	0xbdcce930	-0.100054145
163	0x3bd111c0	0.00638029
164	0x3baa0580	0.005188644
165	0xbdc5800c	-0.09643564
166	0xbdaad62c	-0.08341631
167	0xbd8093b2	-0.06278171
168	0x3dbf66dc	0.09345791
169	0x3d3cdce0	0.04610908
170	0xbdafe632	-0.08588828
171	0x3d003dd8	0.03130898
172	0x3d740f00	0.059584618
173	0x3de9c1cc	0.11413917
174	0xbda1d18d	-0.07901297
175	0x3df3e998	0.11909789
176	0xbdc1ee84	-0.09469321
177	0x3d1a73c4	0.03770806
178	0xbd14fe82	-0.03637553
179	0x3d325ac0	0.043543577
180	0x3daba3f4	0.08380881
181	0x3ca4e758	0.020129845
182	0x3dee6d1e	0.11641906
183	0xbcdbef04	-0.02684737
184	0x3d5bb07c	0.053635105
185	0x3d4fae98	0.050703615
186	0xbb397940	-0.002830103
187	0xbc5d87b8	-0.013521127
188	0xbd528e9a	-0.051405527
189	0xbd29a72a	-0.041419186
190	0x3d8a0804	0.0673981
191	0xbdcad6c0	-0.099042416
192	0xbd50772e	-0.05089491
193	0xbd8e314a	-0.06942995
194	0x3d5be6e8	0.053687006
195	0xbddeb72e	-0.108747825
196	0xbd6b6906	-0.057473205
197	0xbd5f6e50	-0.05454856
198	0x3de06d6e	0.10958372
199	0x3dace72e	0.084425315
200	0x3d247b08	0.040156394
201	0x3cbe00c0	0.023193717
202	0x3d6ccc8c	0.05781226
203	0xbd3eb85c	-0.046562538
204	0x3e017ed3	0.12646036
205	0x3d9986c2	0.07496406
206	0x3dc326e6	0.09528904
207	0x3b8cfce0	0.004302606
208	0xbcd8ba08	-0.026455894
209	0x3ddafb08	0.10692412
210	0x3dc2477e	0.09486292
211	0xbc4f3fd0	-0.012649491
212	0x3c450ae0	0.012026519
213	0xbdb9baf8	-0.090688646
214	0xbd565216	-0.052324377
215	0x3dcd6cca	0.100305155
216	0x3deafabc	0.11473605
217	0x3b8bce80	0.00426656
218	0xbd9bed63	-0.07613637
219	0x3b9a7e20	0.0047147423
220	0x38f5d000	0.000117212534
221	0x3ba2b8c0	0.0049658716
222	0xbcddec90	-0.02709034
223	0x3cbb67a0	0.02287656
224	0xbdb84ef1	-0.08999432
225	0xbdff07d9	-0.12452669
226	0x3da8fb76	0.08251087
227	0xbdb1fa04	-0.08690265
228	0xbddc16b6	-0.10746519
229	0x3dc7f95c	0.097643584
230	0x3d19d550	0.037556946
231	0x3d156e9c	0.03648244
232	0xbde812e9	-0.11331732
233	0xbd13741c	-0.035999402
234	0xbd9fae61	-0.07796932
235	0xbcaa3eb8	-0.02078186
236	0xbe02ffaa	-0.1279284
237	0xbd8fd6fe	-0.070234284
238	0xbdd509f4	-0.10402289
239	0x3d93f224	0.07223919
240	0x3c2b4c90	0.010455266
241	0xbc950358	-0.018190071
242	0x3d7a3b90	0.06109196
243	0x3d0b3b20	0.033991933
244	0xbb3e95c0	-0.0029080957
245	0xbdc70514	-0.097177655
246	0xbda65aec	-0.08122811
247	0x3cf06e48	0.029349461
248	0x3db2866a	0.08717044
249	0x3dc594c2	0.09647514
250	0x3d4ed7c4	0.05049874
251	0x3d5847b0	0.05280274
252	0x3de165f4	0.11005774
253	0x3cc3b758	0.023891136
254	0xbd8f272d	-0.06989894
255	0x3de183de	0.1101148

layer1.bias f4 [60]
0	0xbcb2edd8	-0.021841928
1	0xbdbff1c6	-0.093722865
2	0x3dd5526e	0.10416113
3	0x3d411664	0.047140494
4	0xbd6ace6a	-0.057325758
5	0xbcc6b0bc	-0.024254195
6	0x3d2f36b8	0.042776793
7	0xbc9447ec	-0.018100701
8	0x3d885c60	0.06658244
9	0x3cf4ea88	0.02989699
10	0x3d9aca88	0.07558161
11	0x3dcb6fac	0.09933409
12	0x3dd12284	0.102116615
13	0x3dae10a6	0.08499269
14	0xbdebc9a8	-0.11513072
15	0xbb5ab280	-0.0033370554
16	0x3de0e6ee	0.10981546
17	0xbdd9d401	-0.1063614
18	0x3d61b01c	0.05509959
19	0x3dc87b9e	0.09789203
20	0xbdd520d0	-0.10406649
21	0xbc362a10	-0.011118427
22	0xbcfac448	-0.030611172
23	0x3d71f404	0.059070602
24	0xbb43d9c0	-0.0029884428
25	0x3d68a714	0.056799963
26	0xbda99846	-0.08280997
27	0x3c860408	0.016359344
28	0xbdc1af60	-0.09457278
29	0xbc939f28	-0.018020228
30	0xbdc6aaf0	-0.097005725
31	0x3d860e10	0.06545651
32	0xbd66af44	-0.05631949
33	0x3de57ba6	0.11205225
34	0xbd46471c	-0.04840766
35	0x3dc26e0a	0.094936445
36	0xbd196896	-0.037453257
37	0x3d989de8	0.07451993
38	0x3ddf937c	0.10916802
39	0xbdb7a356	-0.08966701
40	0x3cbfe580	0.023424864
41	0xbdd87948	-0.105700076
42	0x3d774aa8	0.060373932
43	0xbe01c296	-0.12671885
44	0x3bbddba0	0.0057940036
45	0xbd16013e	-0.03662228
46	0xbd83084a	-0.063980654
47	0xbd2d7952	-0.04235203
48	0xbe02fae6	-0.12791023
49	0x3c9b67e0	0.01897043
50	0x3d6aa800	0.057289124
51	0x3d811f3e	0.06304787
52	0xbd42e83e	-0.047584765
53	0x3d076a54	0.033060387
54	0x3db2d98c	0.087329
55	0xbbf69830	-0.0075254664
56	0x3dd58756	0.10426204
57	0xbcad8224	-0.02118022
58	0x3d87bdce	0.06627999
59	0xbd890b18	-0.06691569

layer2.weight f4 [60, 60]
0	0xbd77084c	-0.060310647
1	0x3d75ac70	0.059978902
2	0x3dd3c7e2	0.10340859
3	0x3da9904e	0.08279477
4	0xbd9a0650	-0.07520735
5	0xbd56956a	-0.052388586
6	0x3dd01a82	0.10161306
7	0x3955a400	0.00020374358
8	0x3db28de4	0.0871847
9	0xbd8758f8	-0.06608766
10	0x3d6d15a4	0.057881966
11	0x3de32a18	0.11092013
12	0xbdc5d1c4	-0.0965915
13	0xbd805a87	-0.06267267
14	0x3d0cc314	0.03436573
15	0xbda70c96	-0.081566975
16	0x3b91ab60	0.0044454783
17	0x3cd3e920	0.025867999
18	0x3dd39102	0.103303924
19	0xbd6c0648	-0.057623178
20	0xbd565c6a	-0.052334227
21	0xbd223890	-0.039604723
22	0xbc0062e8	-0.007836081
23	0xbd999184	-0.07498458
24	0xbcc65ee0	-0.024215162
25	0xbdd186da	-0.10230799
26	0xbd16adbc	-0.03678678
27	0xbc1d9d50	-0.009620026
28	0x3c4f52d0	0.012654021
29	0x3da6059c	0.08106539
30	0xbd9b3b26	-0.07579641
31	0x3d4e8060	0.050415397
32	0xbdf25875	-0.11833278
33	0x3d71a404	0.058994308
34	0x3d9f2df0	0.07772434
35	0x3d957b06	0.072988555
36	0x3d040008	0.032226592
37	0xbdae2162	-0.08502461
38	0x3dcb9df6	0.09942238
39	0x3ac4d080	0.0015015751
40	0x3d96cda8	0.073634446
41	0xbd1123f8	-0.035434693
42	0xbdb26544	-0.08710721
43	0xbd1ea74c	-0.038733765
44	0xbd2698b6	-0.04067298
45	0xbd8cc662	-0.06873776
46	0xbd204aa2	-0.039133675
47	0xbd8a1b37	-0.06743472
48	0xbce52e58	-0.0279762
49	0x3df68740	0.12037516
50	0x3d8fb540	0.070169926
51	0xbd193f18	-0.037413687
52	0x3d84577e	0.06462
53	0xbd994164	-0.074831754
54	0xbde1bbd1	-0.11022151
55	0x3b5d8a00	0.0033804178
56	0x3d72287c	0.05912064
57	0xbd7a7942	-0.061150797
58	0xbd9787e2	-0.073989645
59	0x3d901626	0.070354745
60	0x3d65b008	0.05607608
61	0xbd66d63c	-0.056356654
62	0x3d664db4	0.056226447
63	0xbdc81abe	-0.09770726
64	0xbdf61284	-0.1201525
65	0x3dff8ec6	0.12478404
66	0x3d863c0a	0.0655442
67	0xbd54b6c2	-0.051932104
68	0xbdc7fe96	-0.09765355
69	0xbdcf83cb	-0.101325594
70	0x3d208a54	0.03919442
71	0x3db1dbde	0.086845145
72	0xbc23aa80	-0.009989381
73	0xbc6e9900	-0.014562845
74	0x3cb72070	0.022354335
75	0xbdb04980	-0.08607769
76	0xba6bda00	-0.0008997023
77	0x3d47eb04	0.048808113
78	0xbc4547b0	-0.012041017
79	0x3d8d0770	0.06886184
80	0x3d733364	0.05937518
81	0xbcf9f544	-0.03051246
82	0xbcae5828	-0.02128227
83	0xbd1d7d2c	-0.03844945
84	0x3d8415e4	0.06449488
85	0xbdc7a1c4	-0.09747651
86	0xbd00116a	-0.031266607
87	0xbca69254	-0.020333447
88	0xbdb3ce50	-0.08779585
89	0xbe00d10a	-0.12579742
90	0x3e01afe1	0.12664749
91	0xbdb15d90	-0.08660424
92	0x3cd5f4a8	0.026117638
93	0x3ccc5f30	0.024947733
94	0xbd2b79d4	-0.04186423
95	0xbdddf050	-0.108368516
96	0x3c9fdf08	0.01951553
97	0x3dfa2766	0.12214546
98	0x3da2f050	0.07955992
99	0xbde690e3	-0.11258104
100	0xbd911f05	-0.07085995
101	0xbdeff27c	-0.11716172
102	0x3c0dde20	0.008658916
103	0x3e01560b	0.12630479
104	0x3d9bfcce	0.07616578
105	0xbcce0c8c	-0.025152467
106	0x3de8e816	0.11372392
107	0x3d83a394	0.064276844
108	0xbdf7508c	-0.1207591
109	0x3df26df4	0.11837378
110	0xbdeb307d	-0.11483858
111	0x3c635c40	0.013876975
112	0x3b88d8a0	0.0041762143
113	0x3d55783c	0.052116618
114	0x3d1018ac	0.03517978
115	0x3d6915a4	0.056905404
116	0xbdea63b2	-0.114447966
117	0x3d3d6c00	0.046245575
118	0xbdd31753	-0.10307183
119	0xbc912e78	-0.017722353
120	0xbd85e0b7	-0.065370016
121	0x3db82934	0.08992234
122	0x3dfc57be	0.12321423
123	0x3db6bc38	0.08922619
124	0xbc67e118	-0.014152788
125	0xbe033838	-0.12814415
126	0x3de23622	0.11045481
127	0xbda02f80	-0.0782156
128	0xbcb79c2c	-0.022413336
129	0x3c436d00	0.011927843
130	0xbd53985a	-0.051658966
131	0xbc8bc71c	-0.017062716
132	0x3d9e76f2	0.07737531
133	0x3b9c7160	0.0047742575
134	0x3d82a514	0.063791424
135	0x3db43200	0.08798599
136	0x3c964f00	0.018348217
137	0x3d75b3e0	0.059985995
138	0xbd2c3972	-0.04204697
139	0x3de18772	0.11012162
140	0x3de1aef0	0.11019695
141	0xbb239d40	-0.0024965554
142	0xbda21886	-0.07914834
143	0x3db2da9a	0.08733101
144	0xbd111d2c	-0.03542821
145	0xbdf33379	-0.11875052
146	0xbcbc5dd0	-0.022993952
147	0xbd8ccb38	-0.068746984
148	0xbc4309d8	-0.011904202
149	0xbc220550	-0.009888962
150	0xbd20f7cc	-0.039298818
151	0xbe0320c3	-0.12805466
152	0x3c5167b0	0.012781069
153	0x3cc16900	0.023609638
154	0x3dc70154	0.0971705
155	0xbd17d2f4	-0.037066415
156	0xbd307064	-0.043075934
157	0xbd53daec	-0.051722452
158	0x3dd798ce	0.10527192
159	0x3d82fa72	0.06395425
160	0x3cf35a38	0.029706106
161	0x3d88d808	0.0668183
162	0xbdaffe4b	-0.085934244
163	0xbd4b397e	-0.049615376
164	0xbbfe7fb0	-0.0077666864
165	0xbdd9dd0a	-0.10637863
166	0xbd8c1b0e	-0.06841098
167	0xbb055f40	-0.0020350963
168	0x3dcb77aa	0.099349335
169	0xbda92a8c	-0.08260068
170	0xbdaa1b06	-0.083059356
171	0x3df0b858	0.11753911
172	0x3e03dfed	0.1287839
173	0x3c0dec50	0.008662298
174	0x3d6c9000	0.057754517
175	0xbbf2a1c0	-0.007404536
176	0x3df329ca	0.11873205
177	0x3df17ed4	0.11791769
178	0xbd426f56	-0.04746946
179	0x3d99b83e	0.075058445
180	0x3e005361	0.12531807
181	0xbd057f0c	-0.032591864
182	0x3cfb0188	0.030640379
183	0x3dc4fa90	0.096181035
184	0x3d20ab64	0.03922595
185	0x3db53afe	0.088491425
186	0xbcab4bf4	-0.02091024
187	0xbdc9b0ed	-0.09848199
188	0xbc0124c0	-0.007882297
189	0xbd096e1e	-0.03355228
190	0x3da99d0e	0.08281909
191	0xbcfcc1c4	-0.030854113
192	0x3d58be10	0.052915633
193	0xbddf5dc2	-0.10906555
194	0xbdd15430	-0.102211356
195	0x3db275ac	0.087138504
196	0xbc17a078	-0.009254567
197	0x3d8454fc	0.06461522
198	0x3d408e78	0.04701087
199	0x3dfb96e6	0.12284641
200	0x3bbd4140	0.0057756007
201	0x3dbeff56	0.09326045
202	0x3cfc9f40	0.030837655
203	0x3b21fc80	0.0024717152
204	0x3dd5e806	0.104446456
205	0xbd53be84	-0.05169536
206	0x3c3811e0	0.0112347305
207	0x3df5d13a	0.120027974
208	0xbc7db050	-0.015483931
209	0xbc62c808	-0.0138416365
210	0x3c5aa950	0.013346031
211	0xbda3486a	-0.07972796
212	0xbdc0dcac	-0.0941709
213	0x3d8f8192	0.070071355
214	0xbc62cfe8	-0.013843514
215	0x3d742548	0.059605867
216	0xbb1a5c80	-0.002355367
217	0xbd6f9c50	-0.05849868
218	0xbdb12eb0	-0.08651483
219	0xbdb0a010	-0.086242795
220	0xbdfba922	-0.12288119
221	0xbdb89440	-0.090126514
222	0xbd6dc858	-0.05805239
223	0xbb4bd700	-0.0031103492
224	0xbd5457be	-0.05184149
225	0x3dac4e2c	0.084133476
226	0xbdcd9e9c	-0.10040018
227	0x3d86c6fa	0.065809205
228	0x3d6288c4	0.05530621
229	0x3dc51f4a	0.096251085
230	0xbcb25ccc	-0.021772765
231	0x3dc54b94	0.09633556
232	0xbdad5276	-0.08462994
233	0x3d550290	0.052004397
234	0x3de423ce	0.11139642
235	0x3c4afca0	0.012389332
236	0x3d33f130	0.043931186
237	0x3d002570	0.031285703
238	0xbdaeacd8	-0.08529061
239	0xbcb078f0	-0.021542042
240	0x3ca087c8	0.019595996
241	0xbcff05e8	-0.031130746
242	0x3dd61ea8	0.10455066
243	0x3b224800	0.0024762154
244	0xbcf5c238	-0.029999837
245	0xbdfc42bd	-0.12317417
246	0xbd4a811c	-0.049439535
247	0x3d8a65f0	0.06757724
248	0x3dd87940	0.105700016
249	0xbd307dd2	-0.04308874
250	0xbd7a383a	-0.061088778
251	0x3da87954	0.082262665
252	0xbd0d351a	-0.03447447
253	0xbde2e4ea	-0.11078818
254	0xbce070d0	-0.027397543
255	0xbc2cba70	-0.010542497

layer2.bias f4 [60]
0	0x3d9e1ce2	0.07720353
1	0xbd20cfd0	-0.039260685
2	0x3dced1c2	0.10098602
3	0xbd1cac9e	-0.038250558
4	0x3d3fa720	0.046790242
5	0x3dc90684	0.09815696
6	0xbdeb36a5	-0.11485032
7	0x3da05122	0.07827975
8	0x3dada136	0.08478014
9	0x3c7e0660	0.01550445
10	0x3db0a93a	0.086260274
11	0xbda1c8ea	-0.078996494
12	0x3d356cdc	0.04429327
13	0xbd83ce13	-0.0643579
14	0x3cfede30	0.031111807
15	0x3ca04cc8	0.019567862
16	0x3d2cb5a8	0.04216543
17	0xbdcc4702	-0.09974481
18	0xbde56468	-0.112007916
19	0x3dc76592	0.0973617
20	0xbbb1a110	-0.0054208115
21	0xbd936840	-0.071976185
22	0xbc378fe0	-0.011203736
23	0xbceebe94	-0.02914361
24	0xbde38347	-0.111090235
25	0x3b7d2b80	0.0038630664
26	0x3d6a3368	0.05717793
27	0xbd999204	-0.074985534
28	0x3d6adc5c	0.057339057
29	0x3df230f0	0.1182574
30	0xbd80863a	-0.06275602
31	0xbbd0fab0	-0.0063775405
32	0x3d73ce84	0.05952312
33	0xbc85a664	-0.016314693
34	0x3c6ccb60	0.014452785
35	0x3d6c17f0	0.057640016
36	0x3df0092a	0.11720498
37	0x3ded44d6	0.11585395
38	0xbc35da48	-0.011099406
39	0xbd411030	-0.04713458
40	0x3da37a78	0.079823434
41	0x3d2c3148	0.042039186
42	0xbd44e38a	-0.04806856
43	0xbcb04e44	-0.021521695
44	0x3c336d80	0.0109514
45	0x3ca1c798	0.019748494
46	0x3b25b400	0.002528429
47	0xbddfa41e	-0.10919975
48	0xbd77b2a6	-0.060473107
49	0x3caac0e8	0.020843938
50	0x3c0d3910	0.008619562
51	0x3cd30fa0	0.025764287
52	0x3deca8b4	0.11555615
53	0x3ca35a38	0.01994048
54	0xbd1ebca6	-0.038754128
55	0xbcd9a374	-0.026567198
56	0xbd643942	-0.055718668
57	0x3e004313	0.12525587
58	0x3e0116d7	0.12606369
59	0x3db2e99e	0.08735965

layer3.weight f4 [60, 60]
0	0x3d760694	0.060064867
1	0xbe03f0d5	-0.12884839
2	0x3dc2a36c	0.095038265
3	0xbd7c610c	-0.06161599
4	0x3ce92560	0.028460205
5	0x3d1ee4dc	0.038792476
6	0x3d4f97a8	0.05068174
7	0x3dc21014	0.09475723
8	0xbd334d90	-0.04377514
9	0xbd63c8b8	-0.055611342
10	0x3bc90a80	0.006135285
11	0xbdc84696	-0.09779088
12	0x3cb500e8	0.022095159
13	0x3df0c600	0.117565155
14	0xbde2ef9b	-0.11080857
15	0xbda4c6f0	-0.08045757
16	0x3cda0f78	0.026618704
17	0xbda8bc7d	-0.08239076
18	0xbcc59864	-0.024120517
19	0x3dc10162	0.09424092
20	0x3c795b30	0.015219495
21	0xbd4e293e	-0.0503323
22	0xbdd26ff6	-0.10275261
23	0xbd14c6da	-0.036322452
24	0xbcc7e404	-0.024400719
25	0xbdf2b85c	-0.1185157
26	0x3dedae26	0.11605482
27	0x3da97a70	0.08275306
28	0xbe024843	-0.12722878
29	0x3e031895	0.12802346
30	0x3dd29b30	0.10283506
31	0x3deb51e8	0.11490232
32	0xbd26daf8	-0.04073617
33	0x3da318f6	0.07963745
34	0xbc387e80	-0.011260629
35	0xbd2026f4	-0.03909965
36	0x3d520ddc	0.05128275
37	0xbdbe508e	-0.09292708
38	0xbe02f0ba	-0.12787142
39	0xbdda986a	-0.10673602
40	0xbcb55fb0	-0.022140354
41	0x3e021831	0.12704541
42	0x3df828ae	0.12117134
43	0xbdd18146	-0.10229735
44	0x3aedc180	0.0018139333
45	0xbd603600	-0.054739
46	0xbd60cf78	-0.054885358
47	0xbc937d2c	-0.018004023
48	0xbce8ca80	-0.028416872
49	0x3cd589a8	0.026066616
50	0x3dbe9d06	0.093072936
51	0xbdca4f0f	-0.098783605
52	0x3d313bc8	0.043269902
53	0xbd07f142	-0.033189066
54	0x3cdab6d0	0.0266985
55	0x3def1fd2	0.11675991
56	0x3b560200	0.0032655
57	0xbe032c6b	-0.12809913
58	0x3ded4fc0	0.11587477
59	0x3d3a8650	0.045538247
60	0x3deef1f8	0.116672456
61	0xbdad0067	-0.08447342
62	0x3ba187c0	0.0049295127
63	0x3d919d78	0.07110113
64	0xbb94ae20	-0.004537359
65	0x3cfbb820	0.030727446
66	0x3ddfd480	0.10929203
67	0x3d01c530	0.031682193
68	0xbcc43980	-0.0239532
69	0x3dc9e38c	0.09857854
70	0xbe0019c9	-0.12509836
71	0xbc817550	-0.01580301
72	0xbdd812ea	-0.105504826
73	0x3dc38c9a	0.09548302
74	0x3e037d63	0.128408
75	0xbdb23586	-0.08701615
76	0x3d588900	0.05286503
77	0xbdbcc338	-0.092169225
78	0x3d8af31c	0.06784651
79	0x3d515b00	0.051112175
80	0xbd368c10	-0.044567168
81	0x3d1584e0	0.036503673
82	0xbd8140c5	-0.06311182
83	0xbc65a2d8	-0.014015876
84	0x3d37224c	0.044710442
85	0xbdb22b2c	-0.08699641
86	0x3d1f5400	0.038898468
87	0x3cb2a870	0.021808833
88	0x3debcdbc	0.1151385
89	0x3e00e9d9	0.12589206
90	0xbd8c0534	-0.0683693
91	0xbd4ae946	-0.049538873
92	0x3d0155cc	0.031575963
93	0xbd6c509c	-0.057694063
94	0x3d8555fe	0.06510542
95	0xbde2a9c3	-0.11067536
96	0x3c8368b0	0.01604113
97	0x3d24f3bc	0.040271506
98	0xbcd67840	-0.026180387
99	0xbd0f985c	-0.03505741
100	0xbdfc03ae	-0.12305389
101	0xbde8fe11	-0.11376584
102	0x3c1f1b20	0.009711057
103	0xbdd5667a	-0.104199365
104	0xbdc85626	-0.097820565
105	0x3d2ae1a8	0.04171911
106	0x3d064484	0.032780185
107	0xbdab189e	-0.08354305
108	0x3dcbd95c	0.099535674
109	0xbce3ab54	-0.027791657
110	0x3ddd8cb8	0.108178556
111	0xbd6163b4	-0.055026725
112	0x3dac6fe4	0.08419779
113	0x3d20809c	0.03918515
114	0xbd9425a2	-0.072337404
115	0xbe014efd	-0.12627788
116	0xbd94a637	-0.072582655
117	0x3de04c04	0.10951999
118	0xbdce4498	-0.10071677
119	0xbdb7efce	-0.08981286
120	0xbced8274	-0.028992869
121	0x3ddb5052	0.10708679
122	0xbc57ee70	-0.0131794065
123	0xbd227f96	-0.039672457
124	0xbda4b697	-0.08042639
125	0xbda00ae9	-0.07814581
126	0xbdcf98aa	-0.1013654
127	0x3dabc3f6	0.08386986
128	0x3bd02be0	0.0063528866
129	0x3d9185c2	0.071055904
130	0x3dc681ba	0.09692712
131	0xbce8ab84	-0.028402098
132	0xbd42553a	-0.04744456
133	0x3d4b6b48	0.04966286
134	0xbcd29320	-0.02570492
135	0x3d7ad0f0	0.061234415
136	0xbde881d9	-0.113528915
137	0xbcbd5ea8	-0.023116425
138	0x3dfe99c2	0.12431671
139	0xbba1fcf0	-0.0049434826
140	0xbdd1bba7	-0.1024087
141	0x3d4726d0	0.048621
142	0x3c994b78	0.018712744
143	0x3d776efc	0.060408577
144	0x3cb61ed8	0.022231504
145	0x3df8564a	0.12125833
146	0xbd794700	-0.060858727
147	0xbdcb58f0	-0.09929073
148	0x3c15cbf0	0.009142861
149	0xbdcc1edb	-0.09966823
150	0xbdc84596	-0.097788975
151	0x3d8dc4dc	0.069223136
152	0x3d22c3b0	0.039737403
153	0x3d9070ea	0.07052787
154	0xbdbdf114	-0.09274498
155	0xbd5ba76c	-0.053626463
156	0x3d1d5c54	0.03841813
157	0x3da89076	0.08230679
158	0xbc4656b0	-0.012105629
159	0x3caa0e68	0.020758823
160	0xbddc24c2	-0.107491985
161	0x3db43ca0	0.08800626
162	0x3c57fa10	0.013182178
163	0x3dd794a8	0.10526401
164	0x3dec9656	0.11552112
165	0x3dd0b768	0.10191232
166	0xbd82a945	-0.06379942
167	0x3b8fad40	0.0043846667
168	0x3d9f454c	0.07776889
169	0x3e019a01	0.12656404
170	0xbdb5e1fc	-0.08880994
171	0x3d0e5138	0.034745425
172	0xbd03df74	-0.032195523
173	0x3e019925	0.12656076
174	0x3d75baf0	0.05999273
175	0x3c38cd30	0.011279389
176	0x3da5bc20	0.080925226
177	0xbac90480	-0.0015336424
178	0x3d0567f4	0.03256984
179	0xbdc9aa83	-0.09846976
180	0x3c9d2c10	0.01918605
181	0x3db5cca0	0.0887692
182	0x3db29440	0.08719683
183	0xbdbd3b97	-0.092398815
184	0x3d33a068	0.043854147
185	0xbd059c1c	-0.03261958
186	0xbd4d8cee	-0.05018323
187	0xbd929445	-0.071571864
188	0x3dc4dfa4	0.096129686
189	0x3d5b8bb8	0.053600043
190	0xbbc9bb00	-0.0061563253
191	0x3debdf8c	0.115172476
192	0xbc8ca0f8	-0.0171666
193	0xbda549bf	-0.080707066
194	0x3c567e90	0.013091698
195	0xbd8447bc	-0.06458995
196	0xbdd57efe	-0.104246125
197	0xbdfaf0a8	-0.12252933
198	0x3dca8dd8	0.09890336
199	0xbdab1444	-0.08353475
200	0xbd04c724	-0.032416478
201	0xbd919a2e	-0.071094856
202	0x3de70278	0.11279768
203	0xbd30b6ee	-0.043143205
204	0x3d4f5e90	0.05062729
205	0x3db9a22a	0.090641335
206	0xbcd6f810	-0.026241332
207	0x3d8b88da	0.06813212
208	0xbd44c7c4	-0.048042074
209	0x3c8c5c60	0.017133892
210	0xbdd55f9f	-0.10418629
211	0xbdde6630	-0.108593345
212	0x3df5a9d0	0.1199528
213	0xbc579c18	-0.013159774
214	0xbd3ed426	-0.04658904
215	0xbdf3edb7	-0.11910575
216	0xbdb0c364	-0.08631018
217	0x3decc20c	0.11560449
218	0xbd04e61c	-0.032446012
219	0x3d4e1f14	0.050322607
220	0xbd9da1d0	-0.07696879
221	0xbd082c2c	-0.03324525
222	0xbd7f041e	-0.062259786
223	0x3dcd4296	0.10022466
224	0xbdd28832	-0.102798834
225	0xbe0320e2	-0.12805513
226	0xbdc96229	-0.09833176
227	0x3e009d61	0.12560035
228	0x3b7dc600	0.0038722754
229	0xbc201550	-0.009770706
230	0x3db6a978	0.08919042
231	0x3d01c1e4	0.03167905
232	0xbe01be7a	-0.12670317
233	0xbd83229e	-0.06403087
234	0x3d57ce5c	0.052687034
235	0x3d48bf80	0.049010754
236	0x3df0ccf2	0.1175784
237	0x3d7578b4	0.059929565
238	0x3d7a7a2c	0.06115167
239	0x3c1c1040	0.009525359
240	0xbd671262	-0.056414016
241	0xbdc64272	-0.09680642
242	0x3c710e70	0.014712915
243	0xbbcb1370	-0.0061973855
244	0x3e027fc3	0.1274405
245	0xbdb8eba3	-0.09029319
246	0xbb3fe2c0	-0.002927944
247	0x3d98d68e	0.07462798
248	0xbd26dc8e	-0.04073768
249	0xbcfb4f7c	-0.03067755
250	0xbcd972e8	-0.02654405
251	0xbd0d7d0c	-0.034543082
252	0xbcf108a0	-0.029423058
253	0xbbb8d040	-0.0056400597
254	0xbd8556e5	-0.065107144
255	0x3d90098a	0.070330694

layer3.bias f4 [60]
0	0xbd1a34da	-0.03764806
1	0x3dca015c	0.098635405
2	0x3d835a1e	0.06413673
3	0x3d5dd940	0.054162264
4	0x3da3cdf8	0.0799827
5	0x3da9a214	0.08282867
6	0x3bc5b840	0.006033927
7	0xbdf201d5	-0.11816756
8	0xbcce3d94	-0.025175847
9	0xbd3e50ae	-0.04646366
10	0xbd58c38a	-0.052920856
11	0xbd80abf5	-0.06282798
12	0xbdfa5c82	-0.12224676
13	0x3db372de	0.087621436
14	0xbddd2342	-0.107977405
15	0xbd123b4e	-0.03570109
16	0xbcf7a0ac	-0.030227982
17	0xbdc56bff	-0.09639739
18	0x3ce2a370	0.027665824
19	0xbbc77f20	-0.0060881525
20	0xbdb368e9	-0.087602444
21	0x3d65dcec	0.05611889
22	0x3d84d65e	0.064862
23	0x3dffa3f6	0.12482445
24	0xbdc4db66	-0.096121594
25	0xbd577ae2	-0.052607425
26	0x3dfc304a	0.12313898
27	0xbd5b47ba	-0.0535352
28	0x3ccd78e0	0.025082052
29	0xbdf393ba	-0.11893411
30	0x3dbd1bd0	0.092338204
31	0x3d8a89fe	0.06764601
32	0x3d2fdf8c	0.0429378
33	0x3d2a294c	0.04154329
34	0x3de947d0	0.1139065
35	0x3e00b949	0.1257068
36	0xbce187b0	-0.027530521
37	0xbde8e783	-0.11372282
38	0x3dd37510	0.10325062
39	0xbd664acc	-0.056223676
40	0xbc309520	-0.010777742
41	0xbd4f93a0	-0.050677896
42	0x3d86b1ca	0.06576879
43	0xbdd09bb8	-0.10185951
44	0xbdcc57bc	-0.099776715
45	0xbd9fe4d2	-0.07807316
46	0x3dec3e9c	0.11535379
47	0x3d1815b4	0.037130073
48	0x3dbcd7ec	0.09220871
49	0xbc8632a8	-0.016381577
50	0x3dcfd0f8	0.101472795
51	0x3cc1b4b0	0.023645729
52	0x3db47d5c	0.08812973
53	0xbc965108	-0.018349186
54	0x3dbeb00e	0.093109235
55	0x3d88906e	0.06668173
56	0xbd618d52	-0.055066414
57	0x3d7437a4	0.059623376
58	0x3d404c78	0.046947926
59	0x3d25e398	0.040500253

output.weight f4 [1, 60]
0	0xbc696908	-0.014246233
1	0xbcbf6104	-0.02336169
2	0x3bdfb0a0	0.0068264753
3	0xbd0a756e	-0.033803396
4	0xbd4883a2	-0.04895366
5	0x3d182d58	0.03715262
6	0xbdc47750	-0.095930696
7	0x3dfa8a4e	0.12233411
8	0xbe038d57	-0.12846886
9	0x3e03bd1f	0.12865113
10	0xbd66663a	-0.056249835
11	0x3e04226b	0.12903754
12	0xbdbe6006	-0.09295659
13	0xbda69e64	-0.08135679
14	0x3c18a150	0.009315804
15	0xbcbfa02c	-0.023391806
16	0x3dd40f30	0.10354459
17	0xbe024e06	-0.12725076
18	0xbd367804	-0.04454805
19	0xbc2127f0	-0.009836182
20	0xbdd4f88b	-0.10398968
21	0x3d4d491c	0.05011855
22	0x3df5efba	0.12008615
23	0x3bbea9c0	0.0058185756
24	0xbd453690	-0.048147738
25	0x3dcc1312	0.09964575
26	0xbd17e3fe	-0.037082665
27	0x3c68b640	0.014203608
28	0xbcd1df40	-0.02561915
29	0xbda9af5e	-0.08285402
30	0x3df47036	0.11935465
31	0x3dd424d8	0.1035859
32	0x3d52946c	0.051411077
33	0x3dad6b6a	0.08467753
34	0x3d98d2e6	0.07462101
35	0x3be8cca0	0.0071044713
36	0xbc0a41b8	-0.00843852
37	0xbc26abe0	-0.010172814
38	0xbda075fc	-0.07835004
39	0x3d8ced6a	0.06881221
40	0x3df760aa	0.12078984
41	0xbd41b700	-0.047293663
42	0x3d411824	0.047142163
43	0xbda6565a	-0.08121939
44	0xbdf8bda4	-0.12145546
45	0xbbf18380	-0.0073704123
46	0x3d5c269c	0.05374776
47	0x3d0c8d98	0.03431472
48	0xbd78e704	-0.06076719
49	0xbd16a760	-0.036780715
50	0xbde818e4	-0.113328725
51	0xbdd08444	-0.10181478
52	0x3d9fcef8	0.07803148
53	0xbd82d49e	-0.0638821
54	0xbc9e898c	-0.019352697
55	0xbd06f324	-0.03294672
56	0x3d110abc	0.035410628
57	0x3deac564	0.114634305
58	0x3ac37d80	0.0014914721
59	0x3db519a6	0.08842783
